weights/se_model.pth (torch, 845133 bytes, 336 tensors)

backbone.model0.conv1.weight f4 [24, 3, 3, 3]
000000 ea 5e a5 bc 32 8e dc bc 23 4d ec 3d 0f 56 18 bd
       -0.02018686 -0.026923273 0.1153815 -0.037191447
000010 3e b4 a0 be e0 04 7e bd 1b b8 ba bd d8 ae f6 bd
       -0.31387514 -0.062016368 -0.091171466 -0.120450675
000020 95 c0 ac bc 39 c7 12 be 0e 1b 10 be 5a 58 68 bd
       -0.021087924 -0.1433381 -0.1407282 -0.056724884
000030 08 82 cf bd cb 3d cd be ca 70 23 be f3 4d c2 bd
       -0.10132223 -0.40086207 -0.15960994 -0.09487524
000040 00 b5 db bd f1 e9 de 3c c5 8a a0 3d 6a 17 94 3e
       -0.107278824 0.027211161 0.07838968 0.28924114
000050 e4 9d be 3d 33 6f 2f 3e cf 58 01 3e 42 6a 48 3d
       0.09307459 0.17132263 0.12631534 0.04892946
000060 09 45 f7 3d dc fd 6f 3e 66 72 97 3d 46 68 a7 bd
       0.12073714 0.23436683 0.07394867 -0.081741855
000070 2c ca 76 3d 7b ef e2 3d fa a1 bb 3d 83 fe 1d 3e
       0.0602514 0.110808335 0.09161754 0.1542912
000080 82 d6 36 3d ec 6a b4 3d c6 a0 6d be 69 bf 96 be
       0.044638164 0.08809456 -0.23205861 -0.2944291
000090 b8 57 9b 3d 59 73 a0 3e 45 e5 97 3e 27 84 06 3e
       0.075850904 0.31338003 0.29667106 0.1313635
0000a0 c1 af 5a 3e 3a 2b 7d 3d 94 44 33 be 28 02 07 bf
       0.21356107 0.061808802 -0.17506629 -0.52737665
0000b0 5a 8d 1b bf 8b 8d 58 3d 29 0d c4 3e 2c 20 8a 3e
       -0.6076256 0.05286936 0.3829129 0.2697767
0000c0 21 5e 46 3e e8 73 cb 3e 47 cf 13 3e 28 f6 48 be
       0.19371845 0.39736867 0.14434539 -0.19625151
0000d0 61 9c ce be 8a da 15 bf 32 ed a1 3e d0 3a 47 3e
       -0.40353683 -0.5853659 0.31626278 0.19456029
0000e0 08 95 38 3e bb 2b 08 3e b0 bc 17 3e 49 01 27 3e
       0.18025601 0.13297932 0.14818072 0.16309084
0000f0 38 4b 72 3e e6 01 ae 3e 3a a1 82 3e c0 fe 98 bd
       0.23661506 0.33985823 0.2551363 -0.07470465
000100 6c 14 e7 bd f1 68 7f be 9f 9e cf be 7f 9d 92 be
       -0.11283192 -0.24942376 -0.40550706 -0.28635785
000110 ac a6 b2 be 78 18 d8 be 8a 2c 64 be bd 2e ae be
       -0.34892786 -0.42206168 -0.22282615 -0.34020033
000120 09 25 43 3d 09 51 f1 3d 4f 8f e4 bc 20 73 ef bd
       0.04764274 0.11783034 -0.027900366 -0.1169188
000130 61 41 b6 3d 64 de 46 bb d4 a2 a8 3c d5 40 a9 3e
       0.08899189 -0.0030344957 0.020585455 0.33057275
000140 d1 1c a9 3d 27 0b b4 3d 78 f8 a2 3d 18 92 97 3d
       0.082574494 0.0879119 0.07957548 0.07400912
000150 8a 46 fc 3c 55 17 4e be ec e3 f8 3d 9d 1e 41 3e
       0.030795354 -0.20126088 0.12152848 0.18859334
000160 af a2 ea bd 74 b9 e8 3d 02 72 27 bd e8 4d 70 bd
       -0.11456811 0.113634974 -0.04088021 -0.058668047
000170 61 43 14 3d 1d f6 7d bc 31 f5 6a be a2 70 04 3e
       0.03619707 -0.0155005725 -0.22945096 0.12933591
000180 61 d7 f0 3d 26 a3 51 be 00 b3 c8 3c dd 6e ee bb
       0.1175983 -0.20472392 0.024499416 -0.0072763995
000190 b7 f3 a5 bd 3c ba 43 bd d3 70 3a 3e af fd a6 bd
       -0.081031255 -0.04778503 0.18207102 -0.08153855
0001a0 1c 36 66 3e 23 e5 78 3e 38 76 07 be 8d 7a f0 3c
       0.22481579 0.24306159 -0.1322869 0.029355312
0001b0 ef 23 c5 3d 06 46 dc 3d 24 8c 81 3d 19 05 1b 3e
       0.096259944 0.107555434 0.06325558 0.15138663
0001c0 1a c7 18 be 02 59 69 3e 3e dc 18 3d 51 27 b7 be
       -0.14919701 0.2278786 0.037319414 -0.35772184
0001d0 59 6c 35 bc 60 30 07 3e cc 4b d7 3d bc 6c bd 3d
       -0.011073195 0.13202047 0.10512504 0.09249255
0001e0 fc 67 b4 3d d9 da 89 be a1 a1 04 3e 98 49 32 bd
       0.08808896 -0.2692478 0.12952282 -0.043527216
0001f0 f0 bc 03 bf 0c 30 b8 bd 98 e5 32 3d 09 55 a7 3c
       -0.5146017 -0.08993539 0.04367599 0.02042629
000200 99 cb 38 3d 5f a2 aa 3d 55 29 82 be 0f 79 18 3e
       0.04511604 0.08331751 -0.2542216 0.1488993
000210 08 42 2c 3e f0 6f b3 be dd 56 ed 3d 98 e8 44 be
       0.16822064 -0.3504634 0.115888335 -0.19229352
000220 44 45 86 bd 62 d7 5f bd 67 f7 0d bd b2 98 e5 3e
       -0.0655618 -0.054648764 -0.03465977 0.4484306
000230 3e 0a ba 3d 97 10 a7 bd 5a 80 80 3d be ec 2d be
       0.09083985 -0.08157461 0.06274481 -0.16984841
000240 09 32 4e be 6f 2c 45 bd 24 aa 7d bd a9 ea af bc
       -0.20136274 -0.04813808 -0.061929837 -0.0214742
000250 55 9d ef 3e 29 17 0c 3e b6 89 03 be c8 d8 2e 3c
       0.46799722 0.1368071 -0.12845501 0.010671802
000260 66 28 53 be 56 af 47 3c 37 9f 1b bc 58 09 b5 3d
       -0.2062088 0.012187799 -0.009498409 0.08839673
000270 e7 51 e1 bc 45 b5 87 3e 43 d8 9b 3d e8 9c c8 bd
       -0.027504874 0.26505485 0.07609608 -0.097955525
000280 6d b9 df bd ef 86 38 be d1 58 98 3e d1 12 11 3e
       -0.10924039 -0.18020223 0.29755262 0.14167334
000290 4c 10 83 ba e0 04 20 3d 02 ac 53 be 67 17 ae bd
       -0.0009999364 0.03906715 -0.20671085 -0.085005574
0002a0 ca 0b 1a bd 86 47 10 be e4 86 0c bc 8d bf d9 3e
       -0.0376089 -0.14089784 -0.008577082 0.42528954
0002b0 60 b2 74 3e 32 c7 6d 3d 81 85 2a 3d 37 0e 76 be
       0.2389617 0.058051296 0.041631225 -0.2402886
0002c0 c0 ac f6 bd e6 94 ee bd 1c 70 74 be 34 09 e1 bd
       -0.12044668 -0.11649494 -0.23870891 -0.109880835
0002d0 db 38 99 3e 89 cc 8d 3d 75 6d 59 3d 51 56 12 3d
       0.2992619 0.069237776 0.053082902 0.03572685
0002e0 59 95 89 be fc 68 f7 bc 79 5a 2d bc a2 d1 4f be
       -0.26871756 -0.030201428 -0.010580652 -0.20294812
0002f0 6b 0c 0a 3d d0 3b a0 3d 7e 85 d3 3d 59 00 15 3e
       0.03370325 0.07823908 0.10328196 0.14550914
000300 ab 33 56 3d dd 2f 15 3d 61 c3 86 3d 11 2c ed 3c
       0.05229537 0.0364226 0.06580234 0.028951677
000310 a6 86 ba 3d ad 04 a6 3b 5b fd 01 3e 8c b3 24 3e
       0.091077134 0.0050664754 0.12694304 0.16084117
000320 7e 2d 60 3e 7b 6d c7 3d 8d 07 7d 3d ae 5f d7 3d
       0.21892354 0.097376786 0.06177478 0.10516296
000330 2e 16 17 3e 08 f8 10 3e ef e9 3e 3d 91 23 8c be
       0.14754555 0.14157116 0.046609815 -0.27370885
000340 1e c3 79 be 72 bc e9 bd 7b 79 7d be 05 9b a6 be
       -0.24390838 -0.11412896 -0.24753372 -0.32540146
000350 5f 96 89 be 67 50 ee bd 6a 35 34 be 57 52 4e be
       -0.26872537 -0.11636429 -0.17598501 -0.20148598
000360 3f 3c c1 bc 8b e1 73 3c 15 72 1e 3d 93 86 97 bd
       -0.023588298 0.014885317 0.038683016 -0.07398715
000370 9e e0 0a be f5 77 bc bd 05 9a a4 3e 11 da 3c 3e
       -0.13562247 -0.092025675 0.32148758 0.1844256
000380 9a cb 1a be 63 96 0f be 7e f4 05 be 80 d5 90 bd
       -0.1511673 -0.14022212 -0.13081548 -0.07071972
000390 b2 97 e1 bd 34 d2 39 be a7 69 d7 bd 86 63 ec 3e
       -0.11015262 -0.18146592 -0.105181985 0.4616968
0003a0 91 ae 9d 3e 8a 80 64 bd 4a d9 44 bc 1a 85 7d 3d
       0.30797246 -0.055786647 -0.012014696 0.061894514
0003b0 ad c7 76 3e ca ea 71 be 1b b5 85 be 3a 60 75 bc
       0.24099608 -0.23624721 -0.26114735 -0.0149765555
0003c0 28 eb 25 3e 11 03 7d 3d 7b 75 b7 bd bd 0d 16 bd
       0.16202986 0.061770502 -0.089579545 -0.036634196
0003d0 2e 8e cf bd 20 84 0c bd e2 f3 93 bc da ee 9b bc
       -0.101345405 -0.03430569 -0.018060628 -0.019034792
0003e0 91 e5 ef 3c c6 ca 0c 3e 0b 33 80 3c 4c 60 0d 3d
       0.02928427 0.13749227 0.01564934 0.034515664
0003f0 ba 24 ed 3c 4a b8 7e 3b 1c 37 bf 3d 3c 2a 48 bc
       0.028948177 0.003886717 0.09336683 -0.012217101

backbone.model0.conv1.bias f4 [24]
000000 0d f6 2e 3b 97 f6 2e 3b 9c f6 2e 3b 2a f6 2e 3b
       0.002669695 0.0026697272 0.0026697284 0.0026697018
000010 ca f6 2e 3b 54 f6 2e 3b 1b f6 2e 3b 5a f6 2e 3b
       0.002669739 0.0026697116 0.0026696983 0.002669713
000020 48 f6 2e 3b 59 f6 2e 3b 4e f6 2e 3b 5c f6 2e 3b
       0.0026697088 0.0026697128 0.0026697102 0.0026697135
000030 ae f6 2e 3b 4c f6 2e 3b c4 f6 2e 3b 46 f6 2e 3b
       0.0026697326 0.0026697097 0.0026697377 0.0026697083
000040 3e f6 2e 3b 43 f6 2e 3b 10 f6 2e 3b b4 f5 2e 3b
       0.0026697065 0.0026697076 0.0026696958 0.0026696743
000050 fa f5 2e 3b 09 f6 2e 3b 44 f6 2e 3b 41 f6 2e 3b
       0.0026696906 0.0026696941 0.0026697079 0.0026697072

backbone.model0.conv2.conv1.weight f4 [24, 24, 1, 1]
000000 51 98 49 bc 6c 5f b5 be 0d cf 3b bd 48 20 eb 3d
       -0.0123043815 -0.35424364 -0.045851756 0.114807665
000010 ad e6 f4 bd 3a e3 cd bd d1 47 f7 3e ae d9 31 3c
       -0.119580604 -0.10053106 0.4829698 0.010855122
000020 de c5 32 be fe b1 e0 3b 47 4c 56 3e 0f cb ab bc
       -0.17458293 0.006857156 0.20927535 -0.02097085
000030 8f d8 2c bd 92 27 a3 3d bc ae df 3d 75 d0 80 bd
       -0.042198714 0.07966532 0.10922 -0.0628976
000040 39 36 2f 3e 0b eb 5a 3d d4 0b d9 bd b9 e3 5d be
       0.17110528 0.05344681 -0.10597959 -0.216689
000050 3f 76 ec be 13 2a 69 3e ae fc d4 3d f0 23 7b bb
       -0.46183965 0.22769956 0.10399757 -0.003832098
000060 12 72 8d 3e 90 e7 03 bd 00 69 12 3e b7 2c 84 3e
       0.2762609 -0.032203257 0.14297867 0.25815365
000070 cf 47 c0 bc 96 83 9d bd 8a 63 6d 3d 39 4d 7d 3d
       -0.023471741 -0.07691114 0.057956256 0.061841223
000080 1a 8e 9c bc bb 83 9f 3d eb 5d c8 3c d1 80 4a 3e
       -0.019110728 0.077887975 0.024458846 0.19775702
000090 2f f8 e7 bd 3b bc 58 3d fc 08 f2 bd e0 d9 90 3c
       -0.11326634 0.052913886 -0.1181812 0.017682016
0000a0 c2 62 0b bd 83 9b e7 3e 3d 5a 2f 3e 40 ae b9 bc
       -0.03402973 0.45235834 0.17124267 -0.022666097
0000b0 55 ce 38 3d 41 4e 7a 3d 81 83 9f 3d 44 20 66 3e
       0.04511865 0.061109785 0.07788754 0.22473246
0000c0 7e 9a 32 3e 98 38 c4 3d 9d 3f ab 3e d0 54 14 3c
       0.17441747 0.09581107 0.3344697 0.009053424
0000d0 b6 b0 cd bb a6 4e 04 3c 60 77 fc 3a 6c 50 6d 3e
       -0.006277169 0.008075392 0.0019261651 0.2317521
0000e0 f8 ae eb 3c 8c 9a 25 3e 42 62 1b 3d f4 5c 67 3e
       0.028769955 0.16172236 0.037935503 0.22594053
0000f0 e9 92 ca bc 1d e0 93 bd 04 ad a0 3e ea 2b 92 3c
       -0.024728255 -0.072204806 0.31382 0.017843205
000100 ae 3a 8a 3e 8b 85 8d 3e c4 ba b0 bd d6 a7 60 bd
       0.26997894 0.27640948 -0.08629373 -0.05484756
000110 c9 5f 1c 3d 73 49 b6 3c d7 75 0b 3c fb b5 cd bd
       0.038177285 0.02225182 0.008511982 -0.10044476
000120 f3 ed 23 3e dd 62 65 3d 5d 10 18 3e 50 bd ef 3b
       0.16008739 0.056002486 0.14849992 0.007316269
000130 89 57 1c 3e 61 0f f0 3c 40 d4 15 be 12 ed 1e bd
       0.15267767 0.029304208 -0.14631748 -0.038800307
000140 0c c0 0a bb 65 8e 07 3e cc c2 6f 3d 00 30 30 3d
       -0.0021171598 0.13237913 0.058535382 0.043014526
000150 af ae 3e 3c 7c 09 2a bd 89 6f ec bd 8e d4 5c be
       0.0116383275 -0.04151295 -0.11544711 -0.21565458
000160 49 c5 81 bd fe ff 5d be d0 86 a3 3d 24 55 ce 3e
       -0.06336457 -0.21679685 0.07984698 0.40299332
000170 49 b1 e3 bc f0 5e 27 3d d7 65 c3 bd b5 01 cb 3c
       -0.027794497 0.040862024 -0.09540909 0.024781087
000180 0e 3c a6 bd eb a2 10 3e 42 b0 62 3e 0f be 9d 3e
       -0.08116923 0.14124648 0.2213755 0.30809066
000190 ab ad dd 3d 1d db 71 3d af c3 1c 3d 34 f8 21 bd
       0.1082414 0.059046853 0.038272556 -0.039543346
0001a0 47 1b 79 3d d5 11 7c 3e ab 1d 25 be 12 d9 11 3d
       0.06081703 0.24616177 -0.16124599 0.035607405
0001b0 f9 30 dc 3d a9 a1 b6 3d b0 87 1f be bd f5 9d 3d
       0.10751528 0.08917553 -0.15579104 0.077128865
0001c0 40 49 a7 bd 98 0f f0 3d ca 72 10 3e 8b bb 09 3e
       -0.08168268 0.11721724 0.14106289 0.13450448
0001d0 18 c4 37 be a8 39 98 3c 8a bc 0d 3e 1d 22 9b 3d
       -0.17945898 0.01858218 0.13841453 0.07574866
0001e0 0b 2e 7f bb 87 7f a9 3e f1 39 38 ba 1f 00 0b be
       -0.0038937356 0.33105108 -0.0007027677 -0.13574265
0001f0 d6 c4 ab 3d ce f8 5c bd eb 29 e9 bd 56 30 c7 3c
       0.08387153 -0.053948216 -0.11384948 0.02431504
000200 a9 d0 11 3e 5b 7a 3d 3d 7d 78 51 be 0f 35 b2 3d
       0.14239754 0.046259265 -0.20456119 0.087015264
000210 ee 20 e1 3d f1 fa 4e be 46 eb 5c bc 3a 50 b8 bd
       0.10992609 -0.20212914 -0.013483828 -0.08999677
000220 a9 11 2d be 53 9f fb 3c 0e 81 0c be 0c 77 1a 3d
       -0.16901268 0.03071562 -0.13721105 0.03771119
000230 ed dd 6c 3d 73 43 2f bd 3c c1 85 bd d9 db 97 3c
       0.057828832 -0.042788934 -0.06530997 0.018537449
000240 7d 74 c4 bd 8b 7c 2c 3e c9 10 66 bd 0d 06 c7 3d
       -0.09592531 0.16844384 -0.05616835 0.09717951
000250 2a 6f b5 bd 82 0c a2 bd 62 3b 2e be d8 ff 24 be
       -0.088590935 -0.07912542 -0.1701484 -0.16113222
000260 3c 7b 4b 3d 83 2d 50 be f9 a7 c9 bd b3 ec e5 3d
       0.049678072 -0.20329861 -0.09846491 0.112267874
000270 4b 97 b7 be a4 e8 11 be 01 81 8c bd 96 21 f6 bd
       -0.35857615 -0.14248902 -0.06860543 -0.12018125
000280 4b 53 74 be 05 fc 03 3e 68 ff 0a bd 1e 77 56 3e
       -0.23859899 0.12889107 -0.03393498 0.20943877
000290 92 e8 00 bd 5e f3 89 bd 11 b1 1b be d6 64 90 be
       -0.031471796 -0.06735872 -0.15204264 -0.28201932
0002a0 01 4c 16 3e 94 b4 7e ba 1b 14 85 bd 8a 22 00 3e
       0.1467743 -0.00097162393 -0.064979754 0.12513176
0002b0 98 3d 98 3c e7 3c a4 3d d2 3b b4 3b a8 00 9d bd
       0.018584058 0.08019429 0.005500295 -0.07666141
0002c0 38 5c 93 3c 3b 6e c3 bd 39 01 88 3d dd 19 b1 bc
       0.01798831 -0.09542509 0.06640858 -0.021618778
0002d0 3d 74 0a 3c f3 cc c1 bc 56 f2 d8 3e cf d9 3a 3d
       0.008450565 -0.023657298 0.42372388 0.045617875
0002e0 dc a6 b6 3e a5 18 3e bb 87 15 b4 be 13 8a 0f 3d
       0.3567418 -0.0029006389 -0.35172674 0.035043787
0002f0 3b 3f 89 bd 4d 6a 8e bd 47 27 25 3d f9 74 a4 3d
       -0.067015134 -0.06953869 0.04032066 0.08030123
000300 e1 a6 9d bc cc 4b 93 be 59 24 87 bc cd 84 e8 bd
       -0.019244613 -0.28768766 -0.016496824 -0.11353455
000310 8d 7f 4d be 6c 36 3c be af 04 91 bd 5d 39 55 3d
       -0.20068188 -0.18380135 -0.070809714 0.05205666
000320 ae ba 47 be a3 58 56 3d 63 82 44 3e 84 58 6d bc
       -0.19504806 0.052330624 0.19190364 -0.014486436
000330 39 a0 b4 bd 83 0d 9a bd 00 0f a8 3d 79 d7 1e 3f
       -0.088196225 -0.075221084 0.08205986 0.62047535
000340 d2 0d 27 3e eb d8 bb 3d 6d 75 02 bc 53 d8 b3 be
       0.16313866 0.09172233 -0.007962567 -0.3512598
000350 64 62 2a 3e 23 ea fa be 3a 41 bc 3d 49 dd f8 bc
       0.16639096 -0.49006757 0.091921285 -0.030378954
000360 e0 59 1f bd 2a bb 6c bd 10 cb 38 3d d2 0b a4 be
       -0.03890407 -0.05779568 0.04511553 -0.32040268
000370 d8 e6 0d bc 93 bd 48 3c 04 6e 40 bc ff 89 a9 3d
       -0.0086609945 0.012252229 -0.01174498 0.08278274
000380 bb be 5d bd 5f a6 fb 3d bd 46 a4 3d cf 69 80 3d
       -0.054136973 0.12287592 0.08021305 0.062701814
000390 45 b9 ee bc 35 c3 f9 bd 37 67 d4 bd f5 42 05 3e
       -0.029141078 -0.12195436 -0.10371249 0.13013823
0003a0 af f4 ae bc a4 f0 04 3e 0b c4 51 3d 1b b4 e6 bd
       -0.021356909 0.12982422 0.05121235 -0.11264821
0003b0 64 66 2d 3e 16 99 46 be 98 11 65 3d 49 c7 5e 3d
       0.1693359 -0.19394335 0.05592498 0.054389272
0003c0 0c 64 e6 3e 35 21 82 3c 00 72 01 be 7b 2f 89 3d
       0.44998205 0.015884975 -0.12641144 0.06698509
0003d0 85 ed f7 bc 8a 95 e2 3b bc ac 7a 3d 20 de b7 3c
       -0.030264625 0.006914799 0.06119989 0.022444785
0003e0 16 02 c8 3c 40 b1 1c 3e 8a a4 f9 3c ff c8 2e 3e
       0.024415057 0.1530199 0.030473966 0.17068861
0003f0 3b 41 86 be 20 87 0f 3c 3e cb 10 be 32 a3 42 bc
       -0.26221642 0.008760244 -0.1414003 -0.011879729

backbone.model0.conv2.conv1.bias f4 [24]
000000 43 d5 e5 bd 22 bc f3 bd 9e 34 41 3c 83 7c 55 bd
       -0.11222317 -0.11901118 0.01179233 -0.052120697
000010 96 6a 74 bc 8e 08 97 3e 9e 28 70 3e fc 8a 84 3e
       -0.01491799 0.29498714 0.23452994 0.25887287
000020 17 84 87 3d da ea 6e 3e 1a 28 a8 bd fa 65 ee 3d
       0.06616991 0.23331776 -0.08210774 0.11640544
000030 7e df 4a 3e fb bc 32 3d 82 4b e3 3d a7 d2 81 3d
       0.19811818 0.043637257 0.11098386 0.06339007
000040 cb 59 b4 3b 0d ed 48 3d c8 8f bf bc e9 1a a1 be
       0.005503868 0.049054194 -0.02338399 -0.31465843
000050 15 9f 5c 3c 2a 06 77 bc b0 5c c8 3d 52 0b 86 bd
       0.0134656625 -0.015077153 0.09783304 -0.06545128

backbone.model0.conv2.conv2.weight f4 [24, 1, 3, 3]
000000 24 3b f0 bb 31 17 7a bd 3d c5 d6 3d e2 db 46 be
       -0.007331269 -0.061057273 0.10486839 -0.19419816
000010 20 ed 0f 3f 4d 54 34 3d 40 f9 87 3d 5b bb 5d 3e
       0.562212 0.044025708 0.066393375 0.21653502
000020 0b 1d 89 3c dd a9 dc bc f9 63 ce bd 41 ee 89 3d
       0.016737482 -0.026936466 -0.10077662 0.067348965
000030 04 59 3a be 77 f5 a5 be 58 e6 45 bd 5a 6c b8 3d
       -0.1819802 -0.32413837 -0.048315376 0.090050414
000040 32 b1 c1 3c 98 9e 3b 3d 45 d5 c1 bc 39 b7 9c 3d
       0.023644064 0.045805544 -0.023661265 0.076521344
000050 9b f4 8c bd 2b 31 de 3d 4e 73 bf 3e 01 9b bf 3c
       -0.06882592 0.10849222 0.37392658 0.023389341
000060 1f a1 13 bc 91 65 a8 bd 18 38 17 3c 13 f2 79 bc
       -0.009010582 -0.08222497 0.009229682 -0.015255469
000070 b8 7c 00 bd 1b 0d 88 bc 24 02 54 3e 0a 7c b1 3e
       -0.03136894 -0.016607812 0.20703942 0.34664947
000080 a9 db c6 3d e7 a9 48 be 83 c6 9c be 64 5c 2d be
       0.097098656 -0.19596063 -0.30620202 -0.16929775
000090 97 7b 72 3d 1e 0a f5 bd 98 f4 11 3a 7c a4 b3 3d
       0.059199896 -0.1196482 0.00055677583 0.08771607
0000a0 56 da a6 3e 85 e2 53 be 97 0b b1 3d 81 43 2c 3e
       0.32588452 -0.20691879 0.08644789 0.16822626
0000b0 fe 84 05 3e fa b1 dd 3d 40 c8 91 3e dd 48 45 3e
       0.13039014 0.10824962 0.2847309 0.19266076
0000c0 30 62 85 be 0e e3 ae be e6 b1 4d be 04 4f 3e 3d
       -0.26051474 -0.34157604 -0.20087394 0.046462074
0000d0 ed 0b 9c 3d 34 c4 12 3d 60 0f 71 3e 67 c9 8d 3e
       0.07619462 0.035831645 0.23541021 0.2769272
0000e0 02 e0 52 bc 63 ce 3d 3e cd e2 44 3e 75 60 d4 bd
       -0.01287079 0.18535762 0.19227143 -0.1036996
0000f0 4b 4a ad bc 90 7a 52 bd f4 37 97 bd c4 ba 98 3e
       -0.02115359 -0.051386416 -0.07383719 0.2982999
000100 54 96 78 be 20 89 29 bd 83 48 1d 3f 92 cb 2f bf
       -0.24276096 -0.04139054 0.6143877 -0.6867
000110 a2 49 cb 3d 0f 44 f9 3d e7 0b 00 be 8a 56 2f bd
       0.09926154 0.12171184 -0.1250454 -0.04280714
000120 a8 1b c9 3d 00 cc 4e 3d 4b fb b5 bd c3 21 6e 3d
       0.09819728 0.05048752 -0.08885821 0.058137666
000130 8f cb fe 3e 99 4e 37 3d 09 a6 10 bd 18 0b 04 3e
       0.49764678 0.04475269 -0.035314593 0.12894857
000140 e1 a4 26 3e 0f 57 89 3d 73 64 97 bd 60 0b e1 bc
       0.16273834 0.06706058 -0.07392206 -0.027471244
000150 b9 76 e6 3e 92 f2 df be 9d fd a5 3d bd c9 d6 3d
       0.45012453 -0.43739754 0.081050135 0.10487697
000160 b3 d2 df bd 8f 0b 8b bd 43 cf be 3e 69 6a a8 3e
       -0.109288596 -0.06789314 0.37267503 0.32893685
000170 54 59 1c 3e d3 71 36 3e dc af 04 be 8a b8 59 bd
       0.15268451 0.17816858 -0.1295771 -0.053154506
000180 0e e9 02 be 5f 6a 0a bf 84 f7 29 be 52 38 27 bd
       -0.12784216 -0.5406856 -0.16598326 -0.040825196
000190 03 bc 05 bd 84 d0 66 bd 60 16 a3 3d 9f 8e d6 3e
       -0.032650005 -0.0563512 0.07963252 0.41905686
0001a0 a6 9c 50 3e f7 91 ba bd b3 ba 91 3e 23 87 4f bc
       0.20372257 -0.09109872 0.28462753 -0.012666496
0001b0 9a ca 70 3e d3 9d d7 3e d3 19 7e 3e a3 b7 5a bd
       0.23514786 0.42112598 0.24814539 -0.053397786
0001c0 d2 74 07 bd f1 66 05 3e a2 51 53 be a2 32 e5 be
       -0.033070393 0.1302755 -0.20636609 -0.44765192
0001d0 bd b0 8f be f0 61 c1 bc 66 99 c1 bc 4a 66 b6 3b
       -0.28064528 -0.02360627 -0.023632716 0.005566393
0001e0 3c 54 68 3e 9a c3 b7 3e eb 8d 03 3e 29 fe 2a be
       0.22688383 0.3589142 0.12847106 -0.16698517
0001f0 a5 d1 81 be da 25 1e be 95 7b 44 bd e7 fa 68 be
       -0.2535526 -0.15444127 -0.04796942 -0.22751962
000200 a2 3b 59 3d 22 db bc 3d 73 48 dc be 13 10 5b 3e
       0.053035386 0.09221484 -0.43024024 0.2139285
000210 1a c6 1a bc eb 79 f2 bc 62 a9 cc 3c 18 36 4d be
       -0.009446645 -0.02959915 0.024983112 -0.20040166
000220 97 b2 6f be ee ee f7 bd 85 01 37 be aa 2a f6 3d
       -0.2340797 -0.12106119 -0.17871673 0.12019856
000230 60 12 04 3e cb a5 10 3e 35 63 7c 3e 05 1f 2b 3e
       0.12897635 0.14125745 0.2464722 0.16711052
000240 c6 6c d7 bd 3c 0d 28 bd 84 d0 9d 3d 9a 4e 21 bd
       -0.10518794 -0.041028246 0.07705787 -0.0393816
000250 4c 5c 6b bd 8d fc 0b bd 44 0e 3d 3c 37 a2 5c bb
       -0.057461068 -0.034176398 0.011539046 -0.0033666024
000260 eb b2 13 bd d9 7e 4c 3e 73 f2 f3 3d ae 26 71 be
       -0.0360593 0.19970264 0.11911478 -0.23549911
000270 49 c7 90 3e 6e c6 44 3e 4c 79 e0 be f3 70 2a 3e
       0.28277043 0.1921632 -0.43842542 0.16644649
000280 84 0c 3f bd 20 2e 52 be e2 0c 8a 3d f4 94 23 bd
       -0.046642795 -0.20525408 0.067407385 -0.039936975
000290 b8 3e 52 bd ab 1a a3 3e 45 f0 78 3e 9e 0f 24 3d
       -0.051329345 0.31856284 0.24310406 0.040053956
0002a0 13 65 a1 bd 74 1b 8b 3e b2 e4 1f 3e b9 ee 2f bf
       -0.078806065 0.27169383 0.15614584 -0.68723637
0002b0 43 47 5d bf 24 59 dc be 49 49 87 3d 26 be 09 3f
       -0.8643686 -0.4303676 0.06605775 0.5380577
0002c0 52 fa 36 3e a6 ee b8 3e cf 42 0b 3f e2 9c 8b 3e
       0.17868927 0.36119574 0.54398817 0.2726813
0002d0 c7 28 9b be 95 50 96 bd da b3 83 3e 88 ef 8b be
       -0.30304548 -0.073395886 0.25723153 -0.27331185
0002e0 ab 44 92 3d 5a d4 77 3e 59 8e ef bd f4 04 59 3d
       0.071420036 0.242021 -0.116970725 0.05298324
0002f0 a5 f8 ad 3d ca 91 2e bd 8c b0 13 3d eb 05 3f 3e
       0.08494691 -0.042619504 0.03605704 0.18654601
000300 8e 0e ea 3d e1 3f 05 3f dc bd 3c be 9a 39 27 3e
       0.11428557 0.52050596 -0.184318 0.16330567
000310 a3 a9 1d be 09 02 ac 3b 48 0a 2e bd 2f e2 16 3e
       -0.15396743 0.005249266 -0.042490274 0.1473472
000320 17 1c 73 bb 84 61 38 3d 0f 9c 55 3e 3d 91 b4 3d
       -0.00370956 0.045014873 0.20860313 0.088167645
000330 97 d7 29 3d 1f 59 db 3d d1 1b d3 3c 0c 36 24 3d
       0.041465368 0.10710358 0.0257701 0.040090606
000340 e0 da 70 be e2 61 df 3c 49 d9 91 bc eb 15 02 3f
       -0.23520994 0.027268354 -0.017803805 0.50814694
000350 e1 14 b6 be e9 d0 84 bc bc 33 05 bd 7d 8e 99 3d
       -0.35562804 -0.016212897 -0.03252004 0.074978806

backbone.model0.conv2.conv2.bias f4 [24]
000000 80 2d 2f 3b 3d 83 2e 3b b7 fa 2e 3b aa 08 2f 3b
       0.002673 0.0026628517 0.002669973 0.0026708045
000010 79 ce 2e 3b bc 4f 2f 3b c6 e8 2e 3b 0a ef 2e 3b
       0.002667336 0.0026750406 0.0026689037 0.0026692771
000020 42 02 2f 3b 3d f3 2e 3b 8d f0 2e 3b 23 de 2e 3b
       0.0026704227 0.0026695274 0.0026693672 0.0026682697
000030 87 f3 2e 3b 7b 9f 2e 3b 4a ab 2e 3b 33 01 2f 3b
       0.0026695447 0.002664535 0.002665239 0.0026703596
000040 02 08 2f 3b b0 cb 2e 3b 9d 1b 2f 3b d6 dc 2e 3b
       0.0026707654 0.00266717 0.002671934 0.0026681921
000050 d6 3c 2f 3b 72 f5 2e 3b 5a be 2e 3b 7a 03 2f 3b
       0.0026739142 0.002669659 0.0026663751 0.0026704953

backbone.model0.conv2.bn.weight f4 [24]
000000 3f d4 a7 3e 8e e3 bc 3e f6 56 ef 3e f5 ff 91 3e
       0.32779118 0.3689236 0.46746033 0.28515592
000010 cf 7e 98 3e fc 6f 89 3e 98 c6 c0 3e f2 1c 9a 3e
       0.29784247 0.2684325 0.37651515 0.3010021
000020 00 94 ba 3e 77 5b 88 3e c4 ec 89 3e 53 68 15 3f
       0.3644104 0.26632282 0.2693845 0.5836231
000030 ac 7f 8c 3e 8e 6c 6c 3e 19 25 95 3e d1 68 88 3e
       0.27441156 0.23088285 0.29129866 0.2664247
000040 d1 91 b9 3e 27 8a 7b 3e 79 ca ab 3e 62 18 c8 3e
       0.36244062 0.2456442 0.33552912 0.39081103
000050 43 2c 8f 3e df 7e a6 3e 2b b4 d9 3e d6 b5 67 3e
       0.27963457 0.3251867 0.4252027 0.22627959

backbone.model0.conv2.bn.bias f4 [24]
000000 37 ee 02 3e 4e cf 22 3f e5 fd 41 be d5 73 5c bd
       0.12786184 0.6359757 -0.1894451 -0.053821404
000010 3f fb f6 3e 23 3b 13 bd d6 cd a8 3e b0 6a 98 bb
       0.4823856 -0.03594507 0.3296954 -0.00465139
000020 4e 41 ab 3d 1a 6f 60 bc e5 4a 83 bd 36 a2 b4 3e
       0.08362065 -0.013698364 -0.064107694 0.35280007
000030 62 b3 87 bd 66 1d 39 bd 47 fc c1 bc 15 f9 ad bc
       -0.066260114 -0.045194052 -0.023679866 -0.021236936
000040 a2 d7 59 bd b4 d5 6c bd 0c 4d 61 3e 31 5e c8 3d
       -0.05318416 -0.05782099 0.22002047 0.097835906
000050 5a 6a 55 bc 30 b7 14 3e 32 55 dc 3e e1 18 8b 3b
       -0.0130258445 0.14523005 0.4303375 0.004244909

backbone.model0.conv2.bn.running_mean f4 [24]
000000 cf 96 0c be f5 ca 9a bd 92 10 c0 3d ac 6f f8 bb
       -0.13729404 -0.07558242 0.093781605 -0.0075816717
000010 dc 4f 0f 3e 61 bc 5f bc ff a1 2a 3d 13 89 1c ba
       0.13995308 -0.013655753 0.041658398 -0.00059713534
000020 05 8f 10 be 51 e2 94 3a 25 63 2d 3b 8a 2a 7f be
       -0.14117058 0.0011358951 0.00264568 -0.24918571
000030 df c6 a0 3b 2b 18 c6 bb b7 7b e6 bb c6 73 26 3b
       0.00490652 -0.0060453615 -0.007033791 0.0025398596
000040 d2 6d fd 3c 99 ad 55 3b 54 f4 7c bd c5 aa b9 3b
       0.030936155 0.0032604693 -0.061756447 0.0056661093
000050 d1 00 b5 3a 24 c3 0e bc e4 f2 84 bd 03 56 19 3b
       0.0013809447 -0.008713517 -0.0649164 0.0023397214

backbone.model0.conv2.bn.running_var f4 [24]
000000 39 d4 0a 3c 7a 0c 32 3c 0b 51 c8 3b 85 af c1 3a
       0.008473449 0.010867232 0.0061131767 0.001477704
000010 17 30 4d 3c ed 21 d5 3a 40 bf 67 3c b1 43 57 3b
       0.012523673 0.0016260721 0.014144719 0.0032846744
000020 5b f5 3d 3c 4a d3 b1 3a b9 df 5c 3b 42 22 6d 3d
       0.011594142 0.0013566997 0.0033702685 0.057894
000030 c6 fb 67 3b 35 d1 57 3a b0 1b 33 3b 4a 93 eb 3a
       0.0035397871 0.00082327734 0.0027329735 0.0017972973
000040 b0 80 0a 3a 80 27 c3 3a cb c5 47 3c f4 fa b1 3c
       0.0005283458 0.0014889091 0.012193154 0.02172611
000050 b5 3a 05 3b c5 35 0d 3c c1 b7 3f 3c 7e 7f 06 3a
       0.0020329182 0.008618777 0.011701525 0.0005130692

backbone.model0.bn1.weight f4 [24]
000000 92 2e bd 3e a5 61 70 3e 4a 61 af 3e 48 b2 70 3e
       0.36949593 0.23474748 0.34253913 0.23505509
000010 4e 77 86 3e f6 fb 74 3e 55 53 ba 3e f6 be e1 3e
       0.26262897 0.2392424 0.36391702 0.44091004
000020 54 e4 85 3e eb 98 98 3e 5e 85 48 3e 17 8e c5 3e
       0.26150763 0.29804167 0.19582126 0.38584968
000030 68 17 e6 3e 1a 65 82 3e 4e 4e f3 3e 4d f4 c2 3e
       0.44939733 0.2546776 0.4752068 0.38077012
000040 ba 1b 2c 3f e0 35 9e 3e 64 90 9f 3e 05 cc 89 3e
       0.6722981 0.30900478 0.3116485 0.26913467
000050 f5 f7 87 3e 9a 6d 85 3e 71 d1 ef 3e 77 de bd 3e
       0.26556364 0.26060182 0.4683948 0.3708379

backbone.model0.bn1.bias f4 [24]
000000 95 60 b6 bd 5f 8d 32 3e ef 2a 21 3e db a3 d6 3e
       -0.0890514 0.17436741 0.15739034 0.41921887
000010 42 c7 89 bd 74 8b 3f be 63 a3 92 be bb 4e b0 bd
       -0.067274585 -0.18705541 -0.2864028 -0.08608767
000020 8f ff 9c be 2d 42 8c bd fc 6d 91 3e 75 49 c9 be
       -0.30663726 -0.068485595 0.28404224 -0.39313856
000030 30 8e 92 3e 39 8e cd bd a1 19 31 be 7f 90 8d be
       0.28624105 -0.100368924 -0.17294933 -0.27649304
000040 3f b5 49 bf e6 e0 ea 3d fa 20 e3 3d e4 16 84 3e
       -0.78792185 0.11468677 0.11090274 0.25798714
000050 e2 3a 1c 3e dd 04 39 3e 42 00 0c bf 7e 17 d2 3d
       0.15256837 0.18068261 -0.54687893 0.10258387

backbone.model0.bn1.running_mean f4 [24]
000000 18 29 31 c2 42 4b a2 3e 23 df 10 c0 d8 62 4f 42
       -44.29013 0.31698042 -2.2636192 51.846527
000010 4c 56 ad c1 44 d5 60 c0 cc c3 1f c1 e0 29 43 c2
       -21.667137 -3.5130167 -9.985302 -48.790894
000020 3f 28 84 c0 16 ad 0b 42 3c 42 42 40 b6 d8 78 42
       -4.129913 34.91903 3.0352926 62.21163
000030 4d 4f a4 bf 80 3c 16 c0 1f 08 c8 c2 83 23 a0 c0
       -1.2836701 -2.3474426 -100.01586 -5.004335
000040 e9 c1 f7 c2 cf 85 37 41 4b 67 82 42 24 82 d8 40
       -123.87873 11.470168 65.201744 6.7658863
000050 0f 09 67 c1 f6 ff 08 c1 cc fc 6d 42 2a 19 32 c0
       -14.439712 -8.56249 59.496872 -2.782786

backbone.model0.bn1.running_var f4 [24]
000000 cf e6 64 45 3d 74 d5 44 b6 9a 25 45 ee 13 76 44
       3662.4255 1707.6324 2649.6694 984.3114
000010 a1 87 10 44 26 9a 32 43 7d 80 43 44 31 8d 94 45
       578.1192 178.60214 782.0076 4753.649
000020 25 44 75 43 44 4b e6 43 bd d5 30 44 8d 0d c2 44
       245.26619 460.588 707.33966 1552.4235
000030 4c 5e 32 46 80 e5 b7 43 83 d4 66 45 c9 5b 36 44
       11415.574 367.79297 3693.282 729.43414
000040 93 a1 ab 45 00 19 6b 45 60 be c6 44 0c 12 0a 45
       5492.197 3761.5625 1589.9492 2209.128
000050 54 35 18 45 a8 a5 19 45 ef 1e 9c 44 6b 84 5c 45
       2435.333 2458.3535 1248.9667 3528.2761

backbone.model1.conv1.conv1.weight f4 [24, 24, 1, 1]
000000 a5 27 6c 3d 1b 72 8b 3e d8 fc 15 3e 4e 8f ff 3c
       0.057654995 0.27235493 0.14647233 0.031196263
000010 e1 89 25 be c9 ea 8c 3c c8 cb b0 bd 49 6b 04 bb
       -0.16165878 0.017201798 -0.08632618 -0.0020205548
000020 83 12 6b 3d 63 cb 84 bc b1 95 8b 3c 77 4d 37 bc
       0.0573907 -0.016210264 0.017039152 -0.011187903
000030 81 03 b3 3b ff b5 da 3c fc 6f 3b bd c1 e0 8b 3d
       0.005463064 0.02669811 -0.045761093 0.06829978
000040 14 8c 47 3e c9 fc 76 3c 20 3f 4a 3e 1b 04 40 3e
       0.1948703 0.015074917 0.19750643 0.18751566
000050 2c 93 ae bc 4e c7 fd 3d b7 bd 63 be 6d 25 de 3d
       -0.021310411 0.1239153 -0.22240339 0.10846982
000060 1a fb 51 3e fa d7 c3 bd 95 28 7d 3d ac 8a 3f be
       0.20505944 -0.09562679 0.06180628 -0.18705243
000070 90 b0 37 be b3 34 d6 bd 2a 47 29 3e 22 ee c1 bd
       -0.17938447 -0.1045927 0.16531053 -0.09469248
000080 0d b4 69 be 20 a8 55 be d3 12 d1 3c d9 ea d4 bd
       -0.2282259 -0.20864916 0.025521671 -0.10396356
000090 78 4a 34 bc ec 17 0d be 34 0a e7 bc f5 c1 21 3e
       -0.011004083 -0.13778657 -0.028203107 0.15796645
0000a0 20 1d 3e 3d 06 39 4d bd 3a 0b 88 be 87 d4 fd bb
       0.046414495 -0.05010321 -0.26571065 -0.0077462825
0000b0 3a 67 64 bd e6 0e 8f 3e fc d2 b3 bd ac 28 58 be
       -0.055762507 0.27941054 -0.087804765 -0.21109265
0000c0 4d 85 03 be 8e 63 8c 38 c9 ab 23 3f 29 94 22 be
       -0.12843819 6.694264e-05 0.63934 -0.15876831
0000d0 42 00 86 3e f6 0f 06 be e1 67 da bd 76 02 aa 3b
       0.26172072 -0.13092026 -0.106643446 0.0051882816
0000e0 b6 15 77 bd dc c6 c5 3c 34 dd 41 3e a3 0e 3d bf
       -0.06032344 0.024142675 0.18932039 -0.7385046
0000f0 3a a8 09 3e 96 e1 f4 bd d7 e6 83 3b df db 31 bd
       0.1344308 -0.119570896 0.004025321 -0.043422576
000100 fb b5 03 bc 50 53 f2 3d 64 c1 57 bd f1 9a 91 3c
       -0.008038993 0.11832297 -0.052674666 0.017774077
000110 fd c8 72 bd 2e 15 a1 bd 56 52 ee 3e 22 1b 24 bc
       -0.05927371 -0.07865368 0.46547192 -0.010016235
000120 9f 7f a0 bd cd 7e 16 3e bf bc 3d bd 54 28 70 3e
       -0.07836842 0.14696808 -0.04632258 0.23452884
000130 b0 fa 12 be 8f a5 7b 3e 63 c9 f8 3d 4b 8e 2a be
       -0.14353442 0.24574874 0.121477865 -0.16655843
000140 82 ff 4f bb f2 fb f1 bd 4d 84 18 bb a5 28 26 be
       -0.0031737988 -0.11815633 -0.0023272217 -0.16226442
000150 6b 6b 70 3d 24 86 15 3e bc ca 3c be 55 84 42 3e
       0.05869619 0.14601952 -0.18436712 0.18995793
000160 ea 7c e8 3c 48 e3 0b be e3 68 13 3e 95 a8 22 3e
       0.028379876 -0.1366092 0.1439548 0.15884621
000170 13 7f 3d be bb 7f c9 3d 6a ed 89 3d 47 74 7a bc
       -0.18505506 0.09838816 0.06734736 -0.015286512
000180 80 b6 2b 3c e6 62 ca 3e 33 c0 c2 3c db eb 19 bc
       0.010480523 0.3952858 0.023773288 -0.009394611
000190 89 6a 1b be f8 cf cc bc 21 f4 9a be c6 13 2b bd
       -0.15177359 -0.025001511 -0.3026438 -0.041766904
0001a0 0b ab 9f bc 55 d1 59 bc 4b 68 71 bc 9e 33 93 be
       -0.01949074 -0.013294538 -0.014734338 -0.28750318
0001b0 74 3f 3d 3d 37 e5 2a bd c9 ff bb 3c 7a d7 f0 bc
       0.04620309 -0.041722503 0.022949116 -0.029399622
0001c0 82 ae e4 bd 79 6f 40 3d 91 b8 85 3b 06 9b fe 3b
       -0.11166097 0.04698131 0.00408084 0.007769945
0001d0 20 05 73 bd 13 a7 69 3c 61 4f 62 3e c7 70 0a bd
       -0.05933106 0.014261025 0.22100593 -0.03379896
0001e0 30 5a 9d 3b 79 92 80 3e 14 54 b2 bd 0e 8c 1f 3e
       0.004802011 0.2511175 -0.08707443 0.1558077
0001f0 dc cc 36 3e 7b 1c 55 3e b2 32 be be db e8 06 3d
       0.17851585 0.20811646 -0.37148052 0.032936912
000200 a0 1d b1 3d c1 15 3f 3c dc ea 5c 3d 66 99 8e 3d
       0.08648229 0.011662901 0.053934917 0.06962852
000210 e2 de a1 3d fe 6d 0a 3e a6 c6 b2 3c a6 03 82 3e
       0.0790384 0.13518521 0.021823239 0.2539341
000220 b7 40 d2 bc 21 61 91 bd 34 34 c8 bc b3 db 9d 3e
       -0.025665624 -0.07098604 -0.024438955 0.3083168
000230 76 f6 c3 bc d8 83 dc bb 03 c4 d1 bd 8f d7 a4 3c
       -0.023921233 -0.006729584 -0.102424644 0.020122318
000240 1d 7b 08 bf 22 79 4c 38 8a a5 4d bd 56 6f 29 3d
       -0.53312856 4.8750204e-05 -0.0502067 0.041365944
000250 b6 76 35 3e 42 37 6c 3c ad a8 53 bd 10 d4 f8 be
       0.17721066 0.014417471 -0.051674534 -0.4859929
000260 de 10 b0 3e 11 43 f1 bd 93 b4 a8 3d a1 aa d1 3d
       0.3438787 -0.1178037 0.08237567 0.10237623
000270 dc 14 25 3e 92 83 ae 3d 20 f0 8a be c0 0c e3 3c
       0.16121238 0.08521189 -0.27136326 0.02771604
000280 a6 a6 d8 bb 8a 13 18 bd cd 08 1d 3e 22 d1 03 3e
       -0.006611663 -0.03712801 0.15335388 0.12872747
000290 79 82 7b be 93 7a 1b 3d 3c ac 90 3c 89 32 0b 3e
       -0.2456149 0.037958693 0.017660253 0.13593496
0002a0 7c 76 44 bc 4e 78 e8 3e 4d a9 60 be b8 ab 19 bb
       -0.0119911395 0.45404285 -0.21939583 -0.00234483
0002b0 d3 9b 47 bc f1 cd d7 39 c2 97 21 be 42 46 d3 bb
       -0.0121831475 0.00041161434 -0.15780547 -0.0064475844
0002c0 a0 08 63 3c dc 0e e4 3b 80 41 b2 bc ec cd 98 be
       0.013857037 0.006959779 -0.021759748 -0.29844606
0002d0 d7 8b 41 bd 92 92 4d bb 5c f2 19 3c 63 6a be 3c
       -0.047252502 -0.003136788 0.009396162 0.023244089
0002e0 d8 83 f4 3c 19 60 2c 3d 22 1b 2d 3c 9b 1d 94 3b
       0.029848024 0.042083833 0.010565551 0.004520131
0002f0 ca 92 31 3d 71 00 8d 3c d6 b6 0b 3f 76 8b de bb
       0.04335288 0.017212125 0.5457586 -0.0067915274
000300 82 7f d1 3d 75 09 f0 3d 05 af 7e bc 08 66 07 3e
       0.10229398 0.11720554 -0.015544658 0.13222516
000310 72 34 1c 3d 48 98 34 3e 5e 7d 0c 3d f8 6d d6 be
       0.038135953 0.17636216 0.034299247 -0.41880774
000320 1f d1 15 be 5a 0e e2 be 1d b9 ce 3d dd cf c1 3d
       -0.14630555 -0.44151574 0.10093901 0.09463475
000330 c7 f9 ea 3d 55 2a cc 3d 33 90 e5 be aa c1 17 3e
       0.114734225 0.09969012 -0.44836578 0.1481997
000340 7c 94 74 3d 10 15 86 be dc 04 b7 bd 16 8b 6e 3e
       0.05971192 -0.26187944 -0.08936474 0.23295245
000350 67 a4 f1 be 81 72 d7 bd 47 27 a4 bd c0 71 b4 bd
       -0.47195742 -0.10519887 -0.08015304 -0.088107586
000360 47 b0 c7 bc 67 32 51 bd b5 66 a0 3d b8 d3 83 bc
       -0.024376048 -0.051073458 0.0783209 -0.016092166
000370 0e 18 75 be 58 d4 d6 bc 1d 73 28 3b 78 21 3a be
       -0.23934957 -0.0262243 0.0025703378 -0.1817683
000380 62 58 4c bc bd 0d 85 bd de e9 29 bd 3e fe f7 3d
       -0.012472244 -0.06496761 -0.0414828 0.1210904
000390 d2 06 10 3c 66 c5 28 bd ac 96 14 be 07 47 df bd
       0.008790689 -0.04120388 -0.14510602 -0.10902219
0003a0 da db 15 bd dc dc 37 be 34 5e 36 be 54 ad 80 bd
       -0.03658662 -0.17955345 -0.17809373 -0.0628306
0003b0 c3 5a 8b be d9 bf 01 be d7 78 c0 bd 6a b6 22 bd
       -0.27217683 -0.1267084 -0.09398048 -0.039724745
0003c0 e3 f5 6e 3d 78 76 97 3d 24 a2 90 bd 88 87 70 bd
       0.058339965 0.07395643 -0.07062176 -0.058723003
0003d0 f9 3a db 3e 2f 13 c8 bd cf 2d 2d 3e 1e 16 ec 3a
       0.4281843 -0.09769284 0.16912006 0.0018011963
0003e0 9b 69 2d be ec a7 b9 bd 3d c7 30 bc 5b 35 55 bd
       -0.16934817 -0.09065232 -0.01078969 -0.052052837
0003f0 4a 6f b4 3d b8 2e e5 bc 91 e6 91 bd 2d 0d e8 3d
       0.08810289 -0.027976379 -0.07124055 0.11330638

backbone.model1.conv1.conv1.bias f4 [24]
000000 5d f8 60 be f5 3a 8d 3e 52 f5 99 bd 60 37 49 3d
       -0.21969743 0.27584043 -0.07517494 0.049125075
000010 98 06 e7 bc 9c e8 43 bd 14 63 0a 3c 04 33 a7 be
       -0.028201386 -0.047829255 0.008446474 -0.3265611
000020 5a a1 69 3c d9 07 0c 3d ac 73 72 bd 76 c2 ca be
       0.014259661 0.03418717 -0.059192345 -0.39601487
000030 cd 94 04 be 01 b1 00 3c 8f 1f b9 bb 20 4c ea 3c
       -0.12947388 0.007854701 -0.005649514 0.028600752
000040 e2 ba f8 3d 6b fb 9e 3e a4 94 c7 3d a0 15 3e 3c
       0.1214502 0.31051192 0.09745148 0.0116018355
000050 63 7f 52 be 14 3d 98 3e e9 6f d3 3c 96 21 c5 3d
       -0.20556407 0.297341 0.025810199 0.09625547

backbone.model1.conv1.conv2.weight f4 [24, 1, 3, 3]
000000 da 07 8f be ad bd fb be ce 32 e6 bd 0c 24 51 be
       -0.27935678 -0.4916815 -0.11240159 -0.20423907
000010 66 ea 1a 3d be f5 81 3e 40 ce a7 3d 29 c2 e4 3e
       0.037821196 0.253828 0.08193636 0.44679382
000020 9a bd 76 3e a5 3c 1c bd 7d be 06 be b8 66 9b bd
       0.24095765 -0.038143773 -0.13158603 -0.075879514
000030 60 64 dc bd ef e3 4c 3e 6f 6c 94 3e 10 d7 bc bd
       -0.107613325 0.20008825 0.28988978 -0.092207074
000040 c5 54 23 3e e5 b6 b3 3e 82 03 84 3d ab 59 73 bd
       0.15950306 0.35100475 0.064459816 -0.059411686
000050 6d 6e fb 3c 9d 07 c9 3d c2 c3 4c bf 12 95 e4 3d
       0.030692304 0.09815905 -0.799862 0.111612454
000060 f3 03 ca 3d 38 93 2f be fd b6 87 3d 6e a3 9b 3d
       0.098640345 -0.17146003 0.06626699 0.07599531
000070 f4 be 25 bc b8 c2 f3 3c e7 99 24 3e 37 29 9c bd
       -0.010116328 0.029755935 0.16074334 -0.076250486
000080 9b 64 5c 3e 95 e0 95 bc d1 5f 07 bf 8e 46 e3 bd
       0.21522753 -0.018295566 -0.5288058 -0.110974416
000090 ee 32 c9 3d b2 2f 91 3e bf 00 01 bd db 59 93 3e
       0.09824167 0.283567 -0.031494852 0.28779492
0000a0 55 7e be 3e 24 4d 31 bf 1e 5d f5 bb cd a4 1b 3d
       0.3720576 -0.6925833 -0.007487907 0.037998963
0000b0 08 c7 ad be 88 d4 a6 b9 80 ce 66 bc 19 50 70 3c
       -0.3394091 -0.00031820335 -0.014087319 0.014667534
0000c0 67 91 e4 bd a4 b7 33 3f ab d6 22 bc 14 7b c6 3d
       -0.11160546 0.7020209 -0.009938876 0.09691444
0000d0 e2 33 b3 be 4b 77 6a 3d a3 c8 19 3d ae 6b 1c 3e
       -0.3500052 0.057242673 0.037544858 0.15275452
0000e0 d9 00 02 3d 3f cc bd bc f0 f8 15 3f 90 c9 e3 3c
       0.03173909 -0.023168681 0.58582973 0.027806073
0000f0 2a e7 a5 bc c7 e9 87 bd 5c f1 00 3d 8e 9d e5 3c
       -0.02025183 -0.06636386 0.03148018 0.02802923
000100 53 3c 21 bf e1 11 14 bf 64 f8 be 3d 5a fd 89 3e
       -0.6298267 -0.5783978 0.093247205 0.26951104
000110 ff 82 2b be cc a9 a3 3c 8c 55 10 3f 0d 2d a9 3e
       -0.1674919 0.019978426 0.56380534 0.33042184
000120 a5 13 ff bc 9f 38 a0 3c a0 71 25 3c cf c8 3a 3d
       -0.031137297 0.019558249 0.010097891 0.045601662
000130 86 2e 46 3f 39 ba fb bc f3 23 13 3d 24 32 66 bd
       0.7741474 -0.030728446 0.035922956 -0.05620016
000140 0a bb 19 bd e7 3e 95 bd 5c 0e 89 be dc db da bd
       -0.03753189 -0.07287388 -0.26768768 -0.10686466
000150 62 32 f3 3c 7b e3 67 be 07 b5 bd bc 5b c3 dd 3d
       0.02968711 -0.2264537 -0.02315761 0.10828277
000160 c7 c7 30 3f aa 1a 65 3d a0 2e af 3c 71 d2 37 3d
       0.69054836 0.055933632 0.021384537 0.044878427
000170 05 f3 93 3c 9a 51 a3 bd e7 55 e7 3e bb cb 2a 3c
       0.018060217 -0.07974549 0.45182726 0.01042455
000180 75 cc dd 3c 9e 18 0a bd 76 f6 9d 3d 78 fa 55 be
       0.027075032 -0.033714883 0.07713024 -0.20896327
000190 81 34 d4 3c b6 57 7c 3e 39 31 dc be ef b6 b2 3c
       0.025903942 0.24642834 -0.43006304 0.021815745
0001a0 4e 46 bf 3e 29 30 60 be 34 9d 93 be d2 a8 3e 3e
       0.37358326 -0.21893372 -0.28830874 0.18619087
0001b0 6a 80 11 3c 8b 87 29 be 83 5e 0a be b2 14 0e 3e
       0.008880714 -0.16555612 -0.13512616 0.13875082
0001c0 8e 6d 37 3f a2 20 27 bf 01 b9 4d bc df 63 8f 3e
       0.7165154 -0.6528417 -0.012556315 0.28005883
0001d0 f9 d7 46 be 3c 7f b6 bd 0d c1 b3 bd 72 99 17 bc
       -0.19418325 -0.08910987 -0.08777056 -0.009252893
0001e0 bc 2a fc 3c af c3 fc be 3e 3d 70 bc 4a 71 9d bc
       0.030782096 -0.49368045 -0.014663039 -0.01921906
0001f0 fd 49 ae 3c 6f 8d ab ba cf 10 23 3d 0a 8c 70 bd
       0.021275515 -0.0013088415 0.03981095 -0.0587273
000200 f3 fa f0 bc 4c 3d 9f bb 00 1a 09 bf 31 97 96 3d
       -0.029416537 -0.004859602 -0.535553 0.07353056
000210 74 93 d4 bd 46 51 cd bc 8b fd 87 3b 19 25 1f bc
       -0.10379687 -0.025063168 0.0041500977 -0.009713435
000220 ca 78 c7 3b 05 3d 26 3d 6f 92 b4 bd 07 c1 bb be
       0.006087397 0.040585537 -0.088169925 -0.36670706
000230 82 a0 e9 bb db 54 72 3d 1e 22 6b be 91 29 5e bc
       -0.0071297297 0.059162956 -0.22962233 -0.013559715
000240 2c b0 b4 3c cf aa 8e 3e 98 53 3b 3c 21 cd ee 3d
       0.022056662 0.27864692 0.0114335045 0.11660219
000250 b8 40 3a bf f5 03 17 3e d0 a9 b5 bc 3c b6 64 bd
       -0.72755 0.14747603 -0.0221757 -0.055837855
000260 2d 97 a3 bb 40 4f 74 bd 92 cf db bd 42 81 b7 3d
       -0.004992387 -0.05964589 -0.1073295 0.08960201
000270 4a 30 3c be 00 b1 25 be 22 54 4c 3f ad 43 32 bd
       -0.18377796 -0.16180801 0.79815876 -0.043521572
000280 ab 8a 19 be 7c c5 a0 3c 8c e7 10 bc d1 9b 3c 3e
       -0.14994304 0.019625418 -0.008844268 0.18418814
000290 78 44 bd 3d 98 a5 bc bc 9a e6 01 bc 88 29 e9 3e
       0.09241575 -0.02302818 -0.007928515 0.45539498
0002a0 94 18 35 bb 03 d7 fa ba 88 55 cb 3d c5 b5 80 3c
       -0.0027633058 -0.0019137565 0.09928423 0.015711674
0002b0 00 62 33 3d eb 77 0e bd a1 d4 97 3c f4 a4 18 bf
       0.043794632 -0.03478233 0.018534007 -0.596267
0002c0 6b 66 11 bb bc 7b 8b bd 30 4e 8a 3d b0 99 15 bd
       -0.002218629 -0.0681071 0.06753194 -0.03652352
0002d0 35 43 71 bd 20 7b 29 bf c8 19 d8 bc 57 43 6e 3d
       -0.058901984 -0.662035 -0.026379481 0.05816969
0002e0 df 6e 07 3c 8f 9a ab 3d f7 74 8d 3c 51 d8 9f 3d
       0.00826618 0.08379089 0.017267687 0.07804931
0002f0 79 b4 0d 3d a6 b7 28 3d 5a 6e 0d 3f 79 ca 87 3d
       0.03459594 0.041190766 0.5524651 0.066304155
000300 f6 9f 4b bd fa 4e be be 58 3c bf 3c 02 a1 d8 bc
       -0.049713098 -0.3716963 0.023344204 -0.026443962
000310 1d f5 f0 bc ba d9 9c bc 8c f2 33 3c c9 51 29 bd
       -0.029413754 -0.019146789 0.010983121 -0.041337762
000320 23 83 2d bd a2 ee 38 3d d0 f4 08 bf 37 a6 5d bc
       -0.04236139 0.045149453 -0.53498554 -0.013528398
000330 ce 7d 54 bc 0a 25 bf bd fe aa 88 bc 2b da 0e bd
       -0.012969447 -0.093332365 -0.016683098 -0.03487603
000340 86 80 7e 3e 3a cd f1 bd 30 3c 8c 3d e5 33 cf be
       0.24853715 -0.11806722 0.06847417 -0.4046928
000350 57 ed a0 3b c0 c0 7b bc a6 c2 8e be 4f 04 bd 3b
       0.0049111056 -0.015365779 -0.2788288 0.005768336

backbone.model1.conv1.conv2.bias f4 [24]
000000 30 f6 2e 3b b3 f8 2e 3b 83 f8 2e 3b d9 fe 2e 3b
       0.0026697032 0.002669853 0.0026698417 0.0026702194
000010 76 04 2f 3b 7e ee 2e 3b 1b 01 2f 3b db f6 2e 3b
       0.002670554 0.0026692445 0.002670354 0.002669743
000020 68 fc 2e 3b e0 f8 2e 3b 7a f8 2e 3b 22 f0 2e 3b
       0.0026700739 0.0026698634 0.0026698397 0.0026693423
000030 57 ec 2e 3b 51 ff 2e 3b ed 11 2f 3b 7d dc 2e 3b
       0.0026691162 0.0026702473 0.0026713565 0.0026681714
000040 b1 f9 2e 3b 28 ec 2e 3b 49 ee 2e 3b 90 01 2f 3b
       0.002669912 0.0026691053 0.0026692322 0.0026703812
000050 11 ed 2e 3b c4 d8 2e 3b da f6 2e 3b 0c eb 2e 3b
       0.0026691596 0.0026679495 0.0026697428 0.0026690392

backbone.model1.conv1.bn.weight f4 [24]
000000 f6 94 6f 3e 0a 44 6b 3e 9c 57 93 3e 4f ca 60 3e
       0.23396668 0.22975174 0.28777778 0.21952175
000010 50 2a 61 3e 5e 04 6e 3e 21 cb ab 3e e3 cb 81 3e
       0.21988797 0.23243853 0.33553413 0.25350866
000020 85 da c3 3e 48 ec 97 3e 60 d4 71 3e c7 f9 77 3e
       0.38252655 0.29672456 0.23616171 0.24216376
000030 88 3d 79 3e 94 63 70 3e b4 ef 69 3e ac ee f8 3e
       0.24339879 0.23475486 0.22845346 0.48619592
000040 43 38 58 3e 79 35 92 3e d4 58 77 3e b9 9a 7a 3e
       0.21115212 0.2855642 0.24154979 0.24473085
000050 a8 5c 8b 3e 45 e3 82 3e 1c 99 a3 3e 02 2e 83 3e
       0.2721913 0.25564018 0.3195275 0.2562104

backbone.model1.conv1.bn.bias f4 [24]
000000 5b d9 47 3e 9a 22 d7 3e 69 94 1a 3e 67 ec f4 3e
       0.19516508 0.42018586 0.15095676 0.4783661
000010 36 32 83 3d 36 76 f5 3e 9b 7f b9 3e 8e 3e 61 3e
       0.06406061 0.4794175 0.36230168 0.21996519
000020 55 e5 ef 3e fd 5e e3 3d 28 5d 8e 3e dd 02 94 3e
       0.46854654 0.11102102 0.27805448 0.28908435
000030 b3 a7 ec 3c 69 17 f5 3e 56 c7 c5 3e bd ea dc bc
       0.028888559 0.47869423 0.38628644 -0.0269674
000040 40 1f 07 3f d0 e7 1c 3e f7 c3 e0 3e 80 9b 75 3e
       0.5278206 0.15322804 0.4389951 0.239851
000050 f4 b6 5b 3e 13 2b 08 3e 43 0b 2b 3e 7a bf 31 3e
       0.2145651 0.13297682 0.16703515 0.17358199

backbone.model1.conv1.bn.running_mean f4 [24]
000000 68 72 3b 3b 54 d5 63 bc ec ec ad 3d 63 17 37 bd
       0.0028602127 -0.013905842 0.08492455 -0.044700038
000010 16 22 2c 3b 5c a6 c3 3d 2e 42 58 3d bf 88 21 39
       0.0026265434 0.09553215 0.05279749 0.00015405098
000020 71 a4 2f bd 2d a9 86 bd a2 b4 5a 3e 00 a0 07 3d
       -0.042881433 -0.065752365 0.21357968 0.033111572
000030 d8 a9 9b 3b 78 14 a5 3d eb be f6 3d c4 3a 19 be
       0.0047504716 0.08060545 0.120481335 -0.14963824
000040 4f 68 72 3d 56 0a 18 3c 1b 3f a1 bb 07 fe ab 3d
       0.059181508 0.009279808 -0.004920853 0.08398061
000050 23 83 c5 bc 48 d3 bb 3a 4c a7 ae 3c 20 bf bb 3d
       -0.024110382 0.0014329934 0.021320008 0.091673136

backbone.model1.conv1.bn.running_var f4 [24]
000000 bd c8 53 3c f6 97 65 3c 8c 7c 3a 3d 6a 7c 21 3c
       0.012926278 0.014013281 0.045528933 0.009856323
000010 4f 29 1c 3c 6b 56 81 3c 97 6d 0e 3d fc f7 b3 3c
       0.009531333 0.015788278 0.03477248 0.021968834
000020 82 78 8b 3d db 04 54 3c 94 ec fb 3b 55 6d 82 3c
       0.068100944 0.012940611 0.0076881144 0.015921274
000030 cc 58 19 3c 75 5d 4a 3c f6 de 5e 3c 10 20 a2 3c
       0.00935955 0.012351383 0.013602963 0.01979068
000040 ee 41 f1 3b 36 ba 2c 3c 83 57 fd 3c 80 94 82 3c
       0.0073625958 0.010542443 0.030925518 0.015939951
000050 5b 1d 95 3c 1d e9 bf 3b 9e 28 eb 3c 5d ad 53 3c
       0.018202474 0.0058566467 0.028705891 0.012919751
